…
I1204 23:35:11.717705 31619 net.cpp:322] The NetState phase (0) differed from the phase (1) specified by a rule in layer mnist
I1204 23:35:11.717730 31619 net.cpp:322] The NetState phase (0) differed from the phase (1) specified by a rule in layer accuracy
I1204 23:35:11.717854 31619 net.cpp:58] Initializing net from parameters: 
name: "LeNet"
state {
  phase: TRAIN
  level: 0
  stage: ""
}
layer {
  name: "mnist"
  type: "Data"
  top: "data"
  top: "label"
  include {
    phase: TRAIN
  }
  transform_param {
    scale: 0.00390625
  }
  data_param {
    source: "examples/mnist/mnist_train_lmdb"
    batch_size: 64
    backend: LMDB
  }
}
layer {
  name: "conv1"
  type: "Convolution"
  bottom: "data"
  top: "conv1"
  param {
    lr_mult: 1
  }
  param {
    lr_mult: 2
  }
  convolution_param {
    num_output: 20
    kernel_size: 5
    stride: 1
    weight_filler {
      type: "xavier"
    }
    bias_filler {
      type: "constant"
    }
  }
}
layer {
  name: "pool1"
  type: "Pooling"
  bottom: "conv1"
  top: "pool1"
  pooling_param {
    pool: MAX
    kernel_size: 2
    stride: 2
  }
}
layer {
  name: "conv2"
  type: "Convolution"
  bottom: "pool1"
  top: "conv2"
  param {
    lr_mult: 1
  }
  param {
    lr_mult: 2
  }
  convolution_param {
    num_output: 50
    kernel_size: 5
    stride: 1
    weight_filler {
      type: "xavier"
    }
    bias_filler {
      type: "constant"
    }
  }
}
layer {
  name: "pool2"
  type: "Pooling"
  bottom: "conv2"
  top: "pool2"
  pooling_param {
    pool: MAX
    kernel_size: 2
    stride: 2
  }
}
layer {
  name: "ip1"
  type: "InnerProduct"
  bottom: "pool2"
  top: "ip1"
  param {
    lr_mult: 1
  }
  param {
    lr_mult: 2
  }
  inner_product_param {
    num_output: 500
    weight_filler {
      type: "xavier"
    }
    bias_filler {
      type: "constant"
    }
  }
}
layer {
  name: "relu1"
  type: "ReLU"
  bottom: "ip1"
  top: "ip1"
}
layer {
  name: "ip2"
  type: "InnerProduct"
  bottom: "ip1"
  top: "ip2"
  param {
    lr_mult: 1
  }
  param {
    lr_mult: 2
  }
  inner_product_param {
    num_output: 10
    weight_filler {
      type: "xavier"
    }
    bias_filler {
      type: "constant"
    }
  }
}
layer {
  name: "loss"
  type: "SoftmaxWithLoss"
  bottom: "ip2"
  bottom: "label"
  top: "loss"
}
I1204 23:35:11.717970 31619 layer_factory.hpp:77] Creating layer mnist
I1204 23:35:11.718606 31619 net.cpp:100] Creating Layer mnist
I1204 23:35:11.718631 31619 net.cpp:408] mnist -> data
I1204 23:35:11.718727 31619 net.cpp:408] mnist -> label
I1204 23:35:11.720587 31624 db_lmdb.cpp:35] Opened lmdb examples/mnist/mnist_train_lmdb
I1204 23:35:11.733371 31619 data_layer.cpp:41] output data size: 64,1,28,28
I1204 23:35:11.734683 31619 net.cpp:150] Setting up mnist
I1204 23:35:11.734719 31619 net.cpp:157] Top shape: 64 1 28 28 (50176)
I1204 23:35:11.734726 31619 net.cpp:157] Top shape: 64 (64)
I1204 23:35:11.734730 31619 net.cpp:165] Memory required for data: 200960
I1204 23:35:11.734742 31619 layer_factory.hpp:77] Creating layer conv1
I1204 23:35:11.734772 31619 net.cpp:100] Creating Layer conv1
I1204 23:35:11.734781 31619 net.cpp:434] conv1 <- data
I1204 23:35:11.734800 31619 net.cpp:408] conv1 -> conv1
I1204 23:35:11.735961 31619 net.cpp:150] Setting up conv1
I1204 23:35:11.735980 31619 net.cpp:157] Top shape: 64 20 24 24 (737280)
I1204 23:35:11.735985 31619 net.cpp:165] Memory required for data: 3150080
I1204 23:35:11.736007 31619 layer_factory.hpp:77] Creating layer pool1
I1204 23:35:11.736024 31619 net.cpp:100] Creating Layer pool1
I1204 23:35:11.736054 31619 net.cpp:434] pool1 <- conv1
I1204 23:35:11.736063 31619 net.cpp:408] pool1 -> pool1
I1204 23:35:11.736125 31619 net.cpp:150] Setting up pool1
I1204 23:35:11.736135 31619 net.cpp:157] Top shape: 64 20 12 12 (184320)
I1204 23:35:11.736138 31619 net.cpp:165] Memory required for data: 3887360
I1204 23:35:11.736142 31619 layer_factory.hpp:77] Creating layer conv2
I1204 23:35:11.736155 31619 net.cpp:100] Creating Layer conv2
I1204 23:35:11.736160 31619 net.cpp:434] conv2 <- pool1
I1204 23:35:11.736171 31619 net.cpp:408] conv2 -> conv2
I1204 23:35:11.736594 31619 net.cpp:150] Setting up conv2
I1204 23:35:11.736608 31619 net.cpp:157] Top shape: 64 50 8 8 (204800)
I1204 23:35:11.736611 31619 net.cpp:165] Memory required for data: 4706560
I1204 23:35:11.736621 31619 layer_factory.hpp:77] Creating layer pool2
I1204 23:35:11.736630 31619 net.cpp:100] Creating Layer pool2
I1204 23:35:11.736635 31619 net.cpp:434] pool2 <- conv2
I1204 23:35:11.736644 31619 net.cpp:408] pool2 -> pool2
I1204 23:35:11.736682 31619 net.cpp:150] Setting up pool2
I1204 23:35:11.736690 31619 net.cpp:157] Top shape: 64 50 4 4 (51200)
I1204 23:35:11.736693 31619 net.cpp:165] Memory required for data: 4911360
I1204 23:35:11.736697 31619 layer_factory.hpp:77] Creating layer ip1
I1204 23:35:11.736712 31619 net.cpp:100] Creating Layer ip1
I1204 23:35:11.736717 31619 net.cpp:434] ip1 <- pool2
I1204 23:35:11.736732 31619 net.cpp:408] ip1 -> ip1
I1204 23:35:11.741176 31619 net.cpp:150] Setting up ip1
I1204 23:35:11.741195 31619 net.cpp:157] Top shape: 64 500 (32000)
I1204 23:35:11.741200 31619 net.cpp:165] Memory required for data: 5039360
I1204 23:35:11.741211 31619 layer_factory.hpp:77] Creating layer relu1
I1204 23:35:11.741221 31619 net.cpp:100] Creating Layer relu1
I1204 23:35:11.741226 31619 net.cpp:434] relu1 <- ip1
I1204 23:35:11.741232 31619 net.cpp:395] relu1 -> ip1 (in-place)
I1204 23:35:11.741252 31619 net.cpp:150] Setting up relu1
I1204 23:35:11.741258 31619 net.cpp:157] Top shape: 64 500 (32000)
I1204 23:35:11.741262 31619 net.cpp:165] Memory required for data: 5167360
I1204 23:35:11.741266 31619 layer_factory.hpp:77] Creating layer ip2
I1204 23:35:11.741277 31619 net.cpp:100] Creating Layer ip2
I1204 23:35:11.741281 31619 net.cpp:434] ip2 <- ip1
I1204 23:35:11.741291 31619 net.cpp:408] ip2 -> ip2
I1204 23:35:11.742166 31619 net.cpp:150] Setting up ip2
I1204 23:35:11.742183 31619 net.cpp:157] Top shape: 64 10 (640)
I1204 23:35:11.742187 31619 net.cpp:165] Memory required for data: 5169920
I1204 23:35:11.742197 31619 layer_factory.hpp:77] Creating layer loss
I1204 23:35:11.742213 31619 net.cpp:100] Creating Layer loss
I1204 23:35:11.742218 31619 net.cpp:434] loss <- ip2
I1204 23:35:11.742224 31619 net.cpp:434] loss <- label
I1204 23:35:11.742233 31619 net.cpp:408] loss -> loss
I1204 23:35:11.742259 31619 layer_factory.hpp:77] Creating layer loss
…
I1204 23:35:11.742908 31619 solver.cpp:181] Creating test net (#0) specified by net file: examples/mnist/lenet_train_test.prototxt
I1204 23:35:11.742961 31619 net.cpp:322] The NetState phase (1) differed from the phase (0) specified by a rule in layer mnist
I1204 23:35:11.743089 31619 net.cpp:58] Initializing net from parameters: 
name: "LeNet"
state {
  phase: TEST
}
layer {
  name: "mnist"
  type: "Data"
  top: "data"
  top: "label"
  include {
    phase: TEST
  }
  transform_param {
    scale: 0.00390625
  }
  data_param {
    source: "examples/mnist/mnist_test_lmdb"
    batch_size: 100
    backend: LMDB
  }
}
layer {
  name: "conv1"
  type: "Convolution"
  bottom: "data"
  top: "conv1"
  param {
    lr_mult: 1
  }
  param {
    lr_mult: 2
  }
  convolution_param {
    num_output: 20
    kernel_size: 5
    stride: 1
    weight_filler {
      type: "xavier"
    }
    bias_filler {
      type: "constant"
    }
  }
}
layer {
  name: "pool1"
  type: "Pooling"
  bottom: "conv1"
  top: "pool1"
  pooling_param {
    pool: MAX
    kernel_size: 2
    stride: 2
  }
}
layer {
  name: "conv2"
  type: "Convolution"
  bottom: "pool1"
  top: "conv2"
  param {
    lr_mult: 1
  }
  param {
    lr_mult: 2
  }
  convolution_param {
    num_output: 50
    kernel_size: 5
    stride: 1
    weight_filler {
      type: "xavier"
    }
    bias_filler {
      type: "constant"
    }
  }
}
layer {
  name: "pool2"
  type: "Pooling"
  bottom: "conv2"
  top: "pool2"
  pooling_param {
    pool: MAX
    kernel_size: 2
    stride: 2
  }
}
layer {
  name: "ip1"
  type: "InnerProduct"
  bottom: "pool2"
  top: "ip1"
  param {
    lr_mult: 1
  }
  param {
    lr_mult: 2
  }
  inner_product_param {
    num_output: 500
    weight_filler {
      type: "xavier"
    }
    bias_filler {
      type: "constant"
    }
  }
}
layer {
  name: "relu1"
  type: "ReLU"
  bottom: "ip1"
  top: "ip1"
}
layer {
  name: "ip2"
  type: "InnerProduct"
  bottom: "ip1"
  top: "ip2"
  param {
    lr_mult: 1
  }
  param {
    lr_mult: 2
  }
  inner_product_param {
    num_output: 10
    weight_filler {
      type: "xavier"
    }
    bias_filler {
      type: "constant"
    }
  }
}
layer {
  name: "accuracy"
  type: "Accuracy"
  bottom: "ip2"
  bottom: "label"
  top: "accuracy"
  include {
    phase: TEST
  }
}
layer {
  name: "loss"
  type: "SoftmaxWithLoss"
  bottom: "ip2"
  bottom: "label"
  top: "loss"
}
I1204 23:35:11.743181 31619 layer_factory.hpp:77] Creating layer mnist
I1204 23:35:11.743829 31619 net.cpp:100] Creating Layer mnist
I1204 23:35:11.743863 31619 net.cpp:408] mnist -> data
I1204 23:35:11.743880 31619 net.cpp:408] mnist -> label
I1204 23:35:11.745384 31626 db_lmdb.cpp:35] Opened lmdb examples/mnist/mnist_test_lmdb
I1204 23:35:11.745556 31619 data_layer.cpp:41] output data size: 100,1,28,28
I1204 23:35:11.747081 31619 net.cpp:150] Setting up mnist
I1204 23:35:11.747100 31619 net.cpp:157] Top shape: 100 1 28 28 (78400)
I1204 23:35:11.747108 31619 net.cpp:157] Top shape: 100 (100)
I1204 23:35:11.747113 31619 net.cpp:165] Memory required for data: 314000
I1204 23:35:11.747119 31619 layer_factory.hpp:77] Creating layer label_mnist_1_split
I1204 23:35:11.747166 31619 net.cpp:100] Creating Layer label_mnist_1_split
I1204 23:35:11.747174 31619 net.cpp:434] label_mnist_1_split <- label
I1204 23:35:11.747181 31619 net.cpp:408] label_mnist_1_split -> label_mnist_1_split_0
I1204 23:35:11.747210 31619 net.cpp:408] label_mnist_1_split -> label_mnist_1_split_1
I1204 23:35:11.747257 31619 net.cpp:150] Setting up label_mnist_1_split
I1204 23:35:11.747267 31619 net.cpp:157] Top shape: 100 (100)
I1204 23:35:11.747272 31619 net.cpp:157] Top shape: 100 (100)
I1204 23:35:11.747275 31619 net.cpp:165] Memory required for data: 314800
I1204 23:35:11.747280 31619 layer_factory.hpp:77] Creating layer conv1
I1204 23:35:11.747298 31619 net.cpp:100] Creating Layer conv1
I1204 23:35:11.747303 31619 net.cpp:434] conv1 <- data
I1204 23:35:11.747313 31619 net.cpp:408] conv1 -> conv1
I1204 23:35:11.747706 31619 net.cpp:150] Setting up conv1
I1204 23:35:11.747720 31619 net.cpp:157] Top shape: 100 20 24 24 (1152000)
I1204 23:35:11.747725 31619 net.cpp:165] Memory required for data: 4922800
I1204 23:35:11.747736 31619 layer_factory.hpp:77] Creating layer pool1
I1204 23:35:11.747763 31619 net.cpp:100] Creating Layer pool1
I1204 23:35:11.747769 31619 net.cpp:434] pool1 <- conv1
I1204 23:35:11.747776 31619 net.cpp:408] pool1 -> pool1
I1204 23:35:11.747828 31619 net.cpp:150] Setting up pool1
I1204 23:35:11.747838 31619 net.cpp:157] Top shape: 100 20 12 12 (288000)
I1204 23:35:11.747841 31619 net.cpp:165] Memory required for data: 6074800
I1204 23:35:11.747845 31619 layer_factory.hpp:77] Creating layer conv2
I1204 23:35:11.747859 31619 net.cpp:100] Creating Layer conv2
I1204 23:35:11.747864 31619 net.cpp:434] conv2 <- pool1
I1204 23:35:11.747874 31619 net.cpp:408] conv2 -> conv2
I1204 23:35:11.748311 31619 net.cpp:150] Setting up conv2
I1204 23:35:11.748324 31619 net.cpp:157] Top shape: 100 50 8 8 (320000)
I1204 23:35:11.748328 31619 net.cpp:165] Memory required for data: 7354800
I1204 23:35:11.748339 31619 layer_factory.hpp:77] Creating layer pool2
I1204 23:35:11.748347 31619 net.cpp:100] Creating Layer pool2
I1204 23:35:11.748352 31619 net.cpp:434] pool2 <- conv2
I1204 23:35:11.748360 31619 net.cpp:408] pool2 -> pool2
I1204 23:35:11.748404 31619 net.cpp:150] Setting up pool2
I1204 23:35:11.748412 31619 net.cpp:157] Top shape: 100 50 4 4 (80000)
I1204 23:35:11.748416 31619 net.cpp:165] Memory required for data: 7674800
I1204 23:35:11.748420 31619 layer_factory.hpp:77] Creating layer ip1
I1204 23:35:11.748430 31619 net.cpp:100] Creating Layer ip1
I1204 23:35:11.748435 31619 net.cpp:434] ip1 <- pool2
I1204 23:35:11.748441 31619 net.cpp:408] ip1 -> ip1
I1204 23:35:11.752876 31619 net.cpp:150] Setting up ip1
I1204 23:35:11.752903 31619 net.cpp:157] Top shape: 100 500 (50000)
I1204 23:35:11.752908 31619 net.cpp:165] Memory required for data: 7874800
I1204 23:35:11.752920 31619 layer_factory.hpp:77] Creating layer relu1
I1204 23:35:11.752929 31619 net.cpp:100] Creating Layer relu1
I1204 23:35:11.752934 31619 net.cpp:434] relu1 <- ip1
I1204 23:35:11.752952 31619 net.cpp:395] relu1 -> ip1 (in-place)
I1204 23:35:11.752961 31619 net.cpp:150] Setting up relu1
I1204 23:35:11.752969 31619 net.cpp:157] Top shape: 100 500 (50000)
I1204 23:35:11.752980 31619 net.cpp:165] Memory required for data: 8074800
I1204 23:35:11.752990 31619 layer_factory.hpp:77] Creating layer ip2
I1204 23:35:11.753000 31619 net.cpp:100] Creating Layer ip2
I1204 23:35:11.753003 31619 net.cpp:434] ip2 <- ip1
I1204 23:35:11.753013 31619 net.cpp:408] ip2 -> ip2
I1204 23:35:11.753165 31619 net.cpp:150] Setting up ip2
I1204 23:35:11.753185 31619 net.cpp:157] Top shape: 100 10 (1000)
I1204 23:35:11.753188 31619 net.cpp:165] Memory required for data: 8078800
I1204 23:35:11.753196 31619 layer_factory.hpp:77] Creating layer ip2_ip2_0_split
I1204 23:35:11.753203 31619 net.cpp:100] Creating Layer ip2_ip2_0_split
I1204 23:35:11.753209 31619 net.cpp:434] ip2_ip2_0_split <- ip2
I1204 23:35:11.753218 31619 net.cpp:408] ip2_ip2_0_split -> ip2_ip2_0_split_0
I1204 23:35:11.753227 31619 net.cpp:408] ip2_ip2_0_split -> ip2_ip2_0_split_1
I1204 23:35:11.753273 31619 net.cpp:150] Setting up ip2_ip2_0_split
I1204 23:35:11.753280 31619 net.cpp:157] Top shape: 100 10 (1000)
I1204 23:35:11.753285 31619 net.cpp:157] Top shape: 100 10 (1000)
I1204 23:35:11.753300 31619 net.cpp:165] Memory required for data: 8086800
I1204 23:35:11.753304 31619 layer_factory.hpp:77] Creating layer accuracy
I1204 23:35:11.753319 31619 net.cpp:100] Creating Layer accuracy
I1204 23:35:11.753324 31619 net.cpp:434] accuracy <- ip2_ip2_0_split_0
I1204 23:35:11.753329 31619 net.cpp:434] accuracy <- label_mnist_1_split_0
I1204 23:35:11.753340 31619 net.cpp:408] accuracy -> accuracy
…
