…
I1129 20:44:53.164618  7483 net.cpp:322] The NetState phase (0) differed from the phase (1) specified by a rule in layer mnist
I1129 20:44:53.164649  7483 net.cpp:322] The NetState phase (0) differed from the phase (1) specified by a rule in layer accuracy
I1129 20:44:53.164764  7483 net.cpp:58] Initializing net from parameters: 
name: "LeNet"
state {
  phase: TRAIN
  level: 0
  stage: ""
}
layer {
  name: "mnist"
  type: "Data"
  top: "data"
  top: "label"
  include {
    phase: TRAIN
  }
  transform_param {
    scale: 0.00390625
  }
  data_param {
    source: "examples/mnist/mnist_train_lmdb"
    batch_size: 64
    backend: LMDB
  }
}
layer {
  name: "conv1"
  type: "Convolution"
  bottom: "data"
  top: "conv1"
  param {
    lr_mult: 1
  }
  param {
    lr_mult: 2
  }
  convolution_param {
    num_output: 20
    kernel_size: 5
    stride: 1
    weight_filler {
      type: "xavier"
    }
    bias_filler {
      type: "constant"
    }
  }
}
layer {
  name: "pool1"
  type: "Pooling"
  bottom: "conv1"
  top: "pool1"
  pooling_param {
    pool: MAX
    kernel_size: 2
    stride: 2
  }
}
layer {
  name: "conv2"
  type: "Convolution"
  bottom: "pool1"
  top: "conv2"
  param {
    lr_mult: 1
  }
  param {
    lr_mult: 2
  }
  convolution_param {
    num_output: 50
    kernel_size: 5
    stride: 1
    weight_filler {
      type: "xavier"
    }
    bias_filler {
      type: "constant"
    }
  }
}
layer {
  name: "pool2"
  type: "Pooling"
  bottom: "conv2"
  top: "pool2"
  pooling_param {
    pool: MAX
    kernel_size: 2
    stride: 2
  }
}
layer {
  name: "ip1"
  type: "InnerProduct"
  bottom: "pool2"
  top: "ip1"
  param {
    lr_mult: 1
  }
  param {
    lr_mult: 2
  }
  inner_product_param {
    num_output: 500
    weight_filler {
      type: "xavier"
    }
    bias_filler {
      type: "constant"
    }
  }
}
layer {
  name: "relu1"
  type: "ReLU"
  bottom: "ip1"
  top: "ip1"
}
layer {
  name: "ip2"
  type: "InnerProduct"
  bottom: "ip1"
  top: "ip2"
  param {
    lr_mult: 1
  }
  param {
    lr_mult: 2
  }
  inner_product_param {
    num_output: 10
    weight_filler {
      type: "xavier"
    }
    bias_filler {
      type: "constant"
    }
  }
}
layer {
  name: "loss"
  type: "SoftmaxWithLoss"
  bottom: "ip2"
  bottom: "label"
  top: "loss"
}
I1129 20:44:53.164875  7483 layer_factory.hpp:77] Creating layer mnist
I1129 20:44:53.165508  7483 net.cpp:100] Creating Layer mnist
I1129 20:44:53.165531  7483 net.cpp:408] mnist -> data
I1129 20:44:53.165571  7483 net.cpp:408] mnist -> label
I1129 20:44:53.166406  7490 db_lmdb.cpp:35] Opened lmdb examples/mnist/mnist_train_lmdb
I1129 20:44:53.178620  7483 data_layer.cpp:41] output data size: 64,1,28,28
I1129 20:44:53.179864  7483 net.cpp:150] Setting up mnist
I1129 20:44:53.179896  7483 net.cpp:157] Top shape: 64 1 28 28 (50176)
I1129 20:44:53.179904  7483 net.cpp:157] Top shape: 64 (64)
I1129 20:44:53.179911  7483 net.cpp:165] Memory required for data: 200960
I1129 20:44:53.179931  7483 layer_factory.hpp:77] Creating layer conv1
I1129 20:44:53.179958  7483 net.cpp:100] Creating Layer conv1
I1129 20:44:53.179966  7483 net.cpp:434] conv1 <- data
I1129 20:44:53.179983  7483 net.cpp:408] conv1 -> conv1
I1129 20:44:53.180979  7483 net.cpp:150] Setting up conv1
I1129 20:44:53.180995  7483 net.cpp:157] Top shape: 64 20 24 24 (737280)
I1129 20:44:53.181000  7483 net.cpp:165] Memory required for data: 3150080
I1129 20:44:53.181030  7483 layer_factory.hpp:77] Creating layer pool1
I1129 20:44:53.181054  7483 net.cpp:100] Creating Layer pool1
I1129 20:44:53.181080  7483 net.cpp:434] pool1 <- conv1
I1129 20:44:53.181093  7483 net.cpp:408] pool1 -> pool1
I1129 20:44:53.181212  7483 net.cpp:150] Setting up pool1
I1129 20:44:53.181224  7483 net.cpp:157] Top shape: 64 20 12 12 (184320)
I1129 20:44:53.181231  7483 net.cpp:165] Memory required for data: 3887360
I1129 20:44:53.181236  7483 layer_factory.hpp:77] Creating layer conv2
I1129 20:44:53.181249  7483 net.cpp:100] Creating Layer conv2
I1129 20:44:53.181257  7483 net.cpp:434] conv2 <- pool1
I1129 20:44:53.181274  7483 net.cpp:408] conv2 -> conv2
I1129 20:44:53.181737  7483 net.cpp:150] Setting up conv2
I1129 20:44:53.181751  7483 net.cpp:157] Top shape: 64 50 8 8 (204800)
I1129 20:44:53.181754  7483 net.cpp:165] Memory required for data: 4706560
I1129 20:44:53.181766  7483 layer_factory.hpp:77] Creating layer pool2
I1129 20:44:53.181774  7483 net.cpp:100] Creating Layer pool2
I1129 20:44:53.181779  7483 net.cpp:434] pool2 <- conv2
I1129 20:44:53.181785  7483 net.cpp:408] pool2 -> pool2
I1129 20:44:53.181869  7483 net.cpp:150] Setting up pool2
I1129 20:44:53.181885  7483 net.cpp:157] Top shape: 64 50 4 4 (51200)
I1129 20:44:53.181890  7483 net.cpp:165] Memory required for data: 4911360
I1129 20:44:53.181895  7483 layer_factory.hpp:77] Creating layer ip1
I1129 20:44:53.181906  7483 net.cpp:100] Creating Layer ip1
I1129 20:44:53.181915  7483 net.cpp:434] ip1 <- pool2
I1129 20:44:53.181934  7483 net.cpp:408] ip1 -> ip1
I1129 20:44:53.186313  7483 net.cpp:150] Setting up ip1
I1129 20:44:53.186331  7483 net.cpp:157] Top shape: 64 500 (32000)
I1129 20:44:53.186334  7483 net.cpp:165] Memory required for data: 5039360
I1129 20:44:53.186345  7483 layer_factory.hpp:77] Creating layer relu1
I1129 20:44:53.186353  7483 net.cpp:100] Creating Layer relu1
I1129 20:44:53.186358  7483 net.cpp:434] relu1 <- ip1
I1129 20:44:53.186364  7483 net.cpp:395] relu1 -> ip1 (in-place)
I1129 20:44:53.186378  7483 net.cpp:150] Setting up relu1
I1129 20:44:53.186383  7483 net.cpp:157] Top shape: 64 500 (32000)
I1129 20:44:53.186386  7483 net.cpp:165] Memory required for data: 5167360
I1129 20:44:53.186389  7483 layer_factory.hpp:77] Creating layer ip2
I1129 20:44:53.186400  7483 net.cpp:100] Creating Layer ip2
I1129 20:44:53.186404  7483 net.cpp:434] ip2 <- ip1
I1129 20:44:53.186413  7483 net.cpp:408] ip2 -> ip2
I1129 20:44:53.187232  7483 net.cpp:150] Setting up ip2
I1129 20:44:53.187247  7483 net.cpp:157] Top shape: 64 10 (640)
I1129 20:44:53.187252  7483 net.cpp:165] Memory required for data: 5169920
I1129 20:44:53.187259  7483 layer_factory.hpp:77] Creating layer loss
I1129 20:44:53.187273  7483 net.cpp:100] Creating Layer loss
I1129 20:44:53.187279  7483 net.cpp:434] loss <- ip2
I1129 20:44:53.187288  7483 net.cpp:434] loss <- label
I1129 20:44:53.187295  7483 net.cpp:408] loss -> loss
I1129 20:44:53.187319  7483 layer_factory.hpp:77] Creating layer loss
…
I1129 20:44:53.187954  7483 solver.cpp:181] Creating test net (#0) specified by net file: examples/mnist/lenet_train_test.prototxt
I1129 20:44:53.188004  7483 net.cpp:322] The NetState phase (1) differed from the phase (0) specified by a rule in layer mnist
I1129 20:44:53.188129  7483 net.cpp:58] Initializing net from parameters: 
name: "LeNet"
state {
  phase: TEST
}
layer {
  name: "mnist"
  type: "Data"
  top: "data"
  top: "label"
  include {
    phase: TEST
  }
  transform_param {
    scale: 0.00390625
  }
  data_param {
    source: "examples/mnist/mnist_test_lmdb"
    batch_size: 100
    backend: LMDB
  }
}
layer {
  name: "conv1"
  type: "Convolution"
  bottom: "data"
  top: "conv1"
  param {
    lr_mult: 1
  }
  param {
    lr_mult: 2
  }
  convolution_param {
    num_output: 20
    kernel_size: 5
    stride: 1
    weight_filler {
      type: "xavier"
    }
    bias_filler {
      type: "constant"
    }
  }
}
layer {
  name: "pool1"
  type: "Pooling"
  bottom: "conv1"
  top: "pool1"
  pooling_param {
    pool: MAX
    kernel_size: 2
    stride: 2
  }
}
layer {
  name: "conv2"
  type: "Convolution"
  bottom: "pool1"
  top: "conv2"
  param {
    lr_mult: 1
  }
  param {
    lr_mult: 2
  }
  convolution_param {
    num_output: 50
    kernel_size: 5
    stride: 1
    weight_filler {
      type: "xavier"
    }
    bias_filler {
      type: "constant"
    }
  }
}
layer {
  name: "pool2"
  type: "Pooling"
  bottom: "conv2"
  top: "pool2"
  pooling_param {
    pool: MAX
    kernel_size: 2
    stride: 2
  }
}
layer {
  name: "ip1"
  type: "InnerProduct"
  bottom: "pool2"
  top: "ip1"
  param {
    lr_mult: 1
  }
  param {
    lr_mult: 2
  }
  inner_product_param {
    num_output: 500
    weight_filler {
      type: "xavier"
    }
    bias_filler {
      type: "constant"
    }
  }
}
layer {
  name: "relu1"
  type: "ReLU"
  bottom: "ip1"
  top: "ip1"
}
layer {
  name: "ip2"
  type: "InnerProduct"
  bottom: "ip1"
  top: "ip2"
  param {
    lr_mult: 1
  }
  param {
    lr_mult: 2
  }
  inner_product_param {
    num_output: 10
    weight_filler {
      type: "xavier"
    }
    bias_filler {
      type: "constant"
    }
  }
}
layer {
  name: "accuracy"
  type: "Accuracy"
  bottom: "ip2"
  bottom: "label"
  top: "accuracy"
  include {
    phase: TEST
  }
}
layer {
  name: "loss"
  type: "SoftmaxWithLoss"
  bottom: "ip2"
  bottom: "label"
  top: "loss"
}
I1129 20:44:53.188225  7483 layer_factory.hpp:77] Creating layer mnist
I1129 20:44:53.188361  7483 net.cpp:100] Creating Layer mnist
I1129 20:44:53.188381  7483 net.cpp:408] mnist -> data
I1129 20:44:53.188395  7483 net.cpp:408] mnist -> label
I1129 20:44:53.189182  7492 db_lmdb.cpp:35] Opened lmdb examples/mnist/mnist_test_lmdb
I1129 20:44:53.189332  7483 data_layer.cpp:41] output data size: 100,1,28,28
I1129 20:44:53.190686  7483 net.cpp:150] Setting up mnist
I1129 20:44:53.190712  7483 net.cpp:157] Top shape: 100 1 28 28 (78400)
I1129 20:44:53.190719  7483 net.cpp:157] Top shape: 100 (100)
I1129 20:44:53.190724  7483 net.cpp:165] Memory required for data: 314000
I1129 20:44:53.190731  7483 layer_factory.hpp:77] Creating layer label_mnist_1_split
I1129 20:44:53.190742  7483 net.cpp:100] Creating Layer label_mnist_1_split
I1129 20:44:53.190747  7483 net.cpp:434] label_mnist_1_split <- label
I1129 20:44:53.190753  7483 net.cpp:408] label_mnist_1_split -> label_mnist_1_split_0
I1129 20:44:53.190765  7483 net.cpp:408] label_mnist_1_split -> label_mnist_1_split_1
I1129 20:44:53.190858  7483 net.cpp:150] Setting up label_mnist_1_split
I1129 20:44:53.190870  7483 net.cpp:157] Top shape: 100 (100)
I1129 20:44:53.190876  7483 net.cpp:157] Top shape: 100 (100)
I1129 20:44:53.190878  7483 net.cpp:165] Memory required for data: 314800
I1129 20:44:53.190883  7483 layer_factory.hpp:77] Creating layer conv1
I1129 20:44:53.190899  7483 net.cpp:100] Creating Layer conv1
I1129 20:44:53.190907  7483 net.cpp:434] conv1 <- data
I1129 20:44:53.190913  7483 net.cpp:408] conv1 -> conv1
I1129 20:44:53.191160  7483 net.cpp:150] Setting up conv1
I1129 20:44:53.191171  7483 net.cpp:157] Top shape: 100 20 24 24 (1152000)
I1129 20:44:53.191175  7483 net.cpp:165] Memory required for data: 4922800
I1129 20:44:53.191192  7483 layer_factory.hpp:77] Creating layer pool1
I1129 20:44:53.191218  7483 net.cpp:100] Creating Layer pool1
I1129 20:44:53.191226  7483 net.cpp:434] pool1 <- conv1
I1129 20:44:53.191232  7483 net.cpp:408] pool1 -> pool1
I1129 20:44:53.191279  7483 net.cpp:150] Setting up pool1
I1129 20:44:53.191288  7483 net.cpp:157] Top shape: 100 20 12 12 (288000)
I1129 20:44:53.191292  7483 net.cpp:165] Memory required for data: 6074800
I1129 20:44:53.191296  7483 layer_factory.hpp:77] Creating layer conv2
I1129 20:44:53.191308  7483 net.cpp:100] Creating Layer conv2
I1129 20:44:53.191324  7483 net.cpp:434] conv2 <- pool1
I1129 20:44:53.191332  7483 net.cpp:408] conv2 -> conv2
I1129 20:44:53.191853  7483 net.cpp:150] Setting up conv2
I1129 20:44:53.191866  7483 net.cpp:157] Top shape: 100 50 8 8 (320000)
I1129 20:44:53.191879  7483 net.cpp:165] Memory required for data: 7354800
I1129 20:44:53.191889  7483 layer_factory.hpp:77] Creating layer pool2
I1129 20:44:53.191895  7483 net.cpp:100] Creating Layer pool2
I1129 20:44:53.191902  7483 net.cpp:434] pool2 <- conv2
I1129 20:44:53.191911  7483 net.cpp:408] pool2 -> pool2
I1129 20:44:53.191948  7483 net.cpp:150] Setting up pool2
I1129 20:44:53.191961  7483 net.cpp:157] Top shape: 100 50 4 4 (80000)
I1129 20:44:53.191967  7483 net.cpp:165] Memory required for data: 7674800
I1129 20:44:53.191970  7483 layer_factory.hpp:77] Creating layer ip1
I1129 20:44:53.191979  7483 net.cpp:100] Creating Layer ip1
I1129 20:44:53.191987  7483 net.cpp:434] ip1 <- pool2
I1129 20:44:53.191997  7483 net.cpp:408] ip1 -> ip1
I1129 20:44:53.196370  7483 net.cpp:150] Setting up ip1
I1129 20:44:53.196388  7483 net.cpp:157] Top shape: 100 500 (50000)
I1129 20:44:53.196391  7483 net.cpp:165] Memory required for data: 7874800
I1129 20:44:53.196403  7483 layer_factory.hpp:77] Creating layer relu1
I1129 20:44:53.196411  7483 net.cpp:100] Creating Layer relu1
I1129 20:44:53.196418  7483 net.cpp:434] relu1 <- ip1
I1129 20:44:53.196426  7483 net.cpp:395] relu1 -> ip1 (in-place)
I1129 20:44:53.196441  7483 net.cpp:150] Setting up relu1
I1129 20:44:53.196447  7483 net.cpp:157] Top shape: 100 500 (50000)
I1129 20:44:53.196452  7483 net.cpp:165] Memory required for data: 8074800
I1129 20:44:53.196456  7483 layer_factory.hpp:77] Creating layer ip2
I1129 20:44:53.196465  7483 net.cpp:100] Creating Layer ip2
I1129 20:44:53.196471  7483 net.cpp:434] ip2 <- ip1
I1129 20:44:53.196480  7483 net.cpp:408] ip2 -> ip2
I1129 20:44:53.196624  7483 net.cpp:150] Setting up ip2
I1129 20:44:53.196632  7483 net.cpp:157] Top shape: 100 10 (1000)
I1129 20:44:53.196636  7483 net.cpp:165] Memory required for data: 8078800
I1129 20:44:53.196643  7483 layer_factory.hpp:77] Creating layer ip2_ip2_0_split
I1129 20:44:53.196650  7483 net.cpp:100] Creating Layer ip2_ip2_0_split
I1129 20:44:53.196655  7483 net.cpp:434] ip2_ip2_0_split <- ip2
I1129 20:44:53.196661  7483 net.cpp:408] ip2_ip2_0_split -> ip2_ip2_0_split_0
I1129 20:44:53.196669  7483 net.cpp:408] ip2_ip2_0_split -> ip2_ip2_0_split_1
I1129 20:44:53.196705  7483 net.cpp:150] Setting up ip2_ip2_0_split
I1129 20:44:53.196712  7483 net.cpp:157] Top shape: 100 10 (1000)
I1129 20:44:53.196717  7483 net.cpp:157] Top shape: 100 10 (1000)
I1129 20:44:53.196722  7483 net.cpp:165] Memory required for data: 8086800
I1129 20:44:53.196725  7483 layer_factory.hpp:77] Creating layer accuracy
I1129 20:44:53.196737  7483 net.cpp:100] Creating Layer accuracy
I1129 20:44:53.196743  7483 net.cpp:434] accuracy <- ip2_ip2_0_split_0
I1129 20:44:53.196748  7483 net.cpp:434] accuracy <- label_mnist_1_split_0
I1129 20:44:53.196754  7483 net.cpp:408] accuracy -> accuracy
…
